localQNetwork.pth (torch, 399239 bytes, 6 tensors)

weight f4 [64, 836]
000000 92 ee 15 3a a2 7f 9a 3c d5 d6 0c 3c 5a 8f ad 3c
       0.00057194487 0.018859688 0.008596142 0.02118652
000010 e8 30 1f bb 7c c1 65 3c 96 b1 56 3b d0 e0 07 bd
       -0.0024290625 0.014023181 0.0032759658 -0.033173382
000020 fb 77 be 3c 7a 68 30 bd eb 3a 79 3c c8 8a 9d bb
       0.02325057 -0.043068387 0.015211801 -0.004807804
000030 88 26 a4 bc 9d b0 ad bb 2c 93 0a 3d cb de 31 3d
       -0.020037904 -0.005300595 0.03383176 0.043425363
000040 3a f2 1c bc 11 21 d1 bc 0e 2b 4d 3b e4 93 57 3c
       -0.009579236 -0.025528463 0.003130618 0.0131578185
000050 39 f4 48 3b a7 69 87 3c b4 c8 3d bd 28 79 2e 3d
       0.0030663146 0.016529871 -0.046333984 0.042596012
000060 01 c9 d8 bc d3 63 b7 bc d1 37 fa 3c f7 d3 d9 ba
       -0.026463034 -0.022386467 0.030544193 -0.0016618957
000070 58 0c 09 3d ab cc 47 3c a3 7b 99 bc 6e 93 f8 3c
       0.033459038 0.012194793 -0.018735712 0.030343737
000080 a6 15 b7 bb 86 00 18 bc d7 c1 ac 3b 7b bb 85 3a
       -0.0055872975 -0.009277469 0.005272131 0.0010202968
000090 f8 e4 8c 3c ec 61 20 bc b4 3e 4b 3c dd 6e 3b 3b
       0.017199025 -0.009788971 0.012405086 0.0028600015
0000a0 2b 7d 12 bc 1e f1 81 3c d9 84 c1 3c a9 7b 0f bc
       -0.008940975 0.015862044 0.023622917 -0.00875751
0000b0 98 26 e4 bc 26 bf 09 3c d9 4e 34 bd 07 7d 4a 3c
       -0.027850434 0.00840739 -0.044020507 0.01235891
0000c0 e2 da 25 bb 7c e7 f4 3c f0 61 af bb b7 af af bc
       -0.0025307466 0.029895537 -0.005352251 -0.021446092
0000d0 dc 4b bf 3b 20 41 5a bc 75 3d 09 3d 3e de 17 3d
       0.0058379006 -0.013321191 0.033505876 0.03707718
0000e0 a4 75 bb bc d1 39 47 3c e3 fd e1 b8 ec 2d 0c 3d
       -0.022883244 0.012159781 -0.00010776126 0.034223482
0000f0 4c 8a 46 bc 8c ca c4 bc 95 16 89 3c 7c 02 27 3d
       -0.0121179335 -0.024022363 0.0167344 0.040773854
000100 2f a0 c0 3a 39 05 8a bc 82 30 02 bd 17 ca 9a bc
       0.0014696176 -0.016848193 -0.031784542 -0.018895192
000110 a7 2a 02 3a e1 f7 58 bd 98 65 80 3c fe a8 a3 bb
       0.0004965462 -0.05297077 0.015673444 -0.0049945107
000120 3f 12 52 bb 11 dd 43 3c 78 cc 9f 3c 46 2b e9 bc
       -0.0032054333 0.011954562 0.019506678 -0.028463017
000130 d4 0b 60 3c e9 b0 b9 3b 30 b2 83 bc a9 87 c9 3c
       0.013674695 0.0056668413 -0.016076177 0.02460082
000140 62 43 bb bc d8 5a 2d 3c f4 37 fe ba 4d f9 82 bc
       -0.022859279 0.010580741 -0.0019395337 -0.015988017
000150 ef ac d0 3b 0f 60 ab bc 38 0f df 3c 07 f0 97 3c
       0.0063682715 -0.020919828 0.027228937 0.018547071
000160 f4 bb 89 bc f1 e6 75 3c 6b dd 94 3c d9 35 0f bd
       -0.016813256 0.015008674 0.018171987 -0.034963463
000170 56 3d ac bc 66 7a f6 3b e3 91 df 3c 31 88 07 bd
       -0.021025341 0.0075219152 0.027291244 -0.033088867
000180 64 01 06 bd 40 c9 3a bb 6e 97 a5 3b e6 df a2 3c
       -0.03271617 -0.0028501302 0.005053452 0.019882154
000190 7f c2 b2 bc 28 df 47 3b ac 40 c2 bc 6a b9 87 3c
       -0.021821259 0.0030498002 -0.023712479 0.016567905
0001a0 ac 3b 9b bc 01 23 72 3c e0 4f 02 3d f6 ff 4d bc
       -0.018949352 0.014778853 0.031814456 -0.012573233
0001b0 fb 37 23 3a 3c b4 f1 bc 15 d8 51 3c f5 25 d4 bb
       0.0006226298 -0.029504888 0.012807866 -0.0064742514
0001c0 ab 8a 53 bb f5 80 5f 3a 15 f3 07 3d 32 8f c8 3b
       -0.0032278697 0.0008525991 0.033190805 0.006120586
0001d0 7d 92 d4 3c 23 66 81 bb b0 7f dd 3c cf a9 80 bc
       0.025948757 -0.003948943 0.027038425 -0.015705971
0001e0 d2 65 1e bc 05 47 0d bc 55 8b 2f bc 47 66 88 3c
       -0.009667831 -0.008622889 -0.010714372 0.016650332
0001f0 cb d2 92 3c 4c 95 f4 bb 33 61 03 39 33 6c 16 bd
       0.01792278 -0.0074640866 0.00012529343 -0.03672428
000200 2c 1e b1 3c ae 3c b6 3b 46 d5 64 bd 1c 0a d5 bc
       0.021620832 0.005561433 -0.055867456 -0.026005797
000210 0a 13 f6 3c 20 2a fd bc 98 b3 a7 3c f0 ac a7 3c
       0.030038375 -0.030903876 0.02047138 0.020468205
000220 c1 6d c6 3c 4c 04 a5 bc 5f 09 89 bb a6 2c 80 bc
       0.024222257 -0.02014365 -0.0041820253 -0.01564629
000230 42 25 8b bc 17 9e 30 3d de 7a 8a 3c ef 1b f6 bc
       -0.01698554 0.043119516 0.01690429 -0.030042617
000240 d9 3b 07 3d 1a 17 18 bc 79 c8 fc bc ba 5c 13 3d
       0.03301606 -0.009282852 -0.030857312 0.035977103
000250 25 63 b1 3c 99 a1 67 3b 3d f8 5f bb 9d a7 ba 3b
       0.021653721 0.0035344122 -0.003417506 0.0056962506
000260 b0 bc f6 3c 58 7c 98 bc 00 c0 9a 3c 1b 27 99 3c
       0.03011927 -0.01861398 0.01889038 0.018695405
000270 f7 4e f8 bb c0 a6 3a bc 81 34 15 3d 7e 59 e9 bc
       -0.0075777727 -0.011392295 0.036427025 -0.028485056
000280 7c 1f e5 3a 6f 27 61 3c dd 77 07 bd 1f 0f 6f bb
       0.0017480697 0.013742312 -0.033073295 -0.0036477519
000290 73 88 c7 bb 32 03 90 3c a9 ff 2f 3c a1 e7 76 3b
       -0.006089264 0.017579649 0.0107421065 0.0037674683
0002a0 aa 80 3d bc 76 48 f7 bc 17 d8 ff bb 4c 38 1b 3c
       -0.01156632 -0.03018592 -0.0078077423 0.009473871
0002b0 35 30 f2 bc 79 26 81 3c 4b ad 40 bb 2c d2 08 3d
       -0.029564003 0.015765416 -0.0029400166 0.03340356
0002c0 1b c8 22 bc b0 ab 22 bc 61 04 03 bd ab 84 df bc
       -0.009935404 -0.009928629 -0.031986598 -0.02728494
0002d0 72 4c 3e bc 7a f3 5f bc 8f 73 b4 3c e5 3e db bc
       -0.011614906 -0.013668889 0.022027759 -0.026763389
0002e0 81 a5 96 ba 7f 8f bb bc c4 b3 07 bc 30 ff 03 3d
       -0.0011493416 -0.022895573 -0.008282606 0.032225788
0002f0 67 44 fe bb 35 a6 e9 3c 1f 63 3d 3c 76 cb dd bc
       -0.007759619 0.028521637 0.011559277 -0.027074557
000300 6e 22 be bc 9b 4d 5e 3c a7 ae 7e bc 2c 0e 56 3c
       -0.023209777 0.013568307 -0.01554457 0.013064902
000310 0a d3 58 3b 09 3a 2a bd b9 75 a5 3c 54 1c c6 3b
       0.0033084773 -0.041559253 0.020197736 0.0060458574
000320 8e 56 0b bd cd b6 a2 bc e6 d7 8e bb 59 0f af ba
       -0.03401809 -0.019862557 -0.004359233 -0.0013356014
000330 98 d0 c9 bc 78 34 4a bc 55 7b a9 bc 00 a2 8e bc
       -0.024635598 -0.012341611 -0.020688692 -0.017411232
000340 14 6d 2e bd ea d5 0c 3d 3c e2 cd bc 7d 00 ed 3a
       -0.042584494 0.03438369 -0.025132291 0.001808181
000350 88 b0 55 3d 24 bc e7 bb 71 a7 81 bb c1 6b 85 ba
       0.052170306 -0.0070719887 -0.003956728 -0.0010179208
000360 7a 65 ed b5 55 14 b0 bb ca c4 01 bd 3e 6d 8e bc
       -1.768741e-06 -0.0053735175 -0.031681813 -0.017386075
000370 53 ce 83 bc f6 53 90 bb 06 90 1b 3c 28 82 e3 3c
       -0.016089594 -0.00440454 0.009494787 0.027772024
000380 fa b0 05 bc 34 8b 08 bb 8c 4f 85 3c b2 87 bf 3c
       -0.00815987 -0.0020834925 0.016273282 0.023380134
000390 07 0c 43 3c 51 e5 f5 bc a6 14 85 3c 52 49 4e bc
       0.011904723 -0.030016573 0.016245198 -0.012590723
0003a0 6c 0c 1f 3c 46 36 78 3a 47 4b 85 bb 98 7f b8 bc
       0.009707551 0.00094685366 -0.0040678116 -0.022521779
0003b0 11 06 e6 3c 37 98 95 bb cb 3c ed bc 0b e0 9d 38
       0.028079065 -0.0045652646 -0.028959652 7.528075e-05
0003c0 73 1c e1 bc 29 39 8e 3c 98 90 01 3c cb f8 e0 3c
       -0.027479386 0.01736124 0.007908009 0.027462384
0003d0 de bc 8b 3c e8 43 da 3b 28 82 06 3d a0 fe bc 39
       0.017057832 0.006660927 0.03283897 0.00036047865
0003e0 85 50 fa 3a 86 be 91 3c fc d7 7a 3c 8a 75 7d bc
       0.0019097483 0.017791044 0.015310284 -0.015469918
0003f0 cc 3a aa 3c df 53 8d bc bc 75 f7 bc 32 16 34 bc
       0.02077999 -0.017251907 -0.030207507 -0.01099162

bias f4 [64]
000000 11 12 f6 bc 03 ca 75 bc 68 34 ac 3c 85 75 12 bd
       -0.030037912 -0.015001777 0.021021083 -0.035756607
000010 d5 48 6d 3c e8 57 b0 3a 41 66 bc 3c 64 75 0d 3d
       0.014482697 0.0013453932 0.022997977 0.03453578
000020 93 3a 4b 3c 50 09 bc bc 09 aa 90 3c fb fc 44 bc
       0.012404102 -0.02295366 0.017659204 -0.012023206
000030 e7 1b 4f 3b ac 8e 02 3d bd 5d a0 bc 3e 19 9e 3a
       0.0031602324 0.031874344 -0.019575948 0.0012061966
000040 78 86 de 3c fd a9 f1 bc 14 87 0e ba 9c 65 f6 bb
       0.02716373 -0.029500002 -0.00054369983 -0.007519437
000050 c9 e6 4e bc 9b 0b c4 bc 63 5b cf bc 30 c7 91 bc
       -0.012628266 -0.023931315 -0.025312131 -0.017795175
000060 06 cd 2f 3c 74 dd b0 bc a2 e6 ce 3b 25 5a 7c bc
       0.010730034 -0.021589972 0.0063141147 -0.0154023515
000070 6c fc bd bb 34 d2 6b 3b 1e 01 e0 3b 28 41 56 3c
       -0.0057979133 0.0035983445 0.0068360707 0.013077058
000080 e1 34 07 3d f0 51 78 3c 6e 15 1c bd 4f 3c ce 3c
       0.033009414 0.015156254 -0.038106374 0.025175242
000090 12 71 02 bd 45 1b e8 bc 2d c5 1a bc b9 d5 cf 3b
       -0.031846114 -0.028333316 -0.009446424 0.0063426164
0000a0 9c f6 e9 3c 67 2a 85 bc 8f db 98 3c 3e ea 21 3c
       0.028559975 -0.01625557 0.018659381 0.009882508
0000b0 42 96 fe 3c a4 83 c8 3b b3 7d ef 3c db 69 9d 3b
       0.031077508 0.0061192084 0.029234743 0.0048038787
0000c0 31 70 1d bc 28 f6 0a bd 9a fc 3c bc ad d3 ed 3c
       -0.009609268 -0.03392616 -0.011534834 0.029031599
0000d0 48 27 fe bb 9b a0 14 3c dd 10 a8 3c 63 59 41 bc
       -0.0077561475 0.009071494 0.020515854 -0.011801097
0000e0 a4 89 b0 bc 7f c3 b4 3c e7 fc f8 bc 9f d8 5a 3c
       -0.021550007 0.022065876 -0.03039403 0.013357311
0000f0 3c 61 01 bd c5 d8 ad 3c 03 37 b0 3c f4 1e 42 bc
       -0.03158687 0.021221528 0.021510607 -0.0118482

weight f4 [64, 64]
000000 3c f2 64 bd 6c 71 02 3e 78 a3 84 bd 5c 3d 1b bd
       -0.055895075 0.1273858 -0.06476492 -0.037900314
000010 27 04 85 3d bc 72 e9 bb 6a 86 6d 3d 5d df 8b 3d
       0.064949326 -0.007124273 0.057989515 0.068297125
000020 0e 10 c3 3d 73 09 39 3d b2 f4 72 bd 7f f6 a6 3d
       0.095245466 0.045175027 -0.05931539 0.08152484
000030 db 8f 30 3d fe 73 a3 3d 4f 28 f8 bd 78 42 b2 3d
       0.04310594 0.07981108 -0.12117063 0.08704084
000040 6b f0 8b 3d 14 05 41 bd cb 76 e1 bc 71 24 e8 3d
       0.068329655 -0.047123984 -0.027522465 0.11335076
000050 8f a3 ef 3d b3 40 04 bc 49 77 dc 3d c4 b2 05 3d
       0.11701118 -0.008072066 0.10764939 0.032641187
000060 75 02 84 bc 30 96 d9 3d 78 ef b4 bc f3 40 d8 bb
       -0.016114453 0.10624349 -0.022086844 -0.0065995394
000070 65 ef 7a 3c 38 8c 04 be dc 57 a8 3d 29 61 21 bd
       0.015315865 -0.12944114 0.08219883 -0.0393993
000080 39 7c 0d be 1e 14 a5 3d 10 c4 1c 3d cf 4b 58 3d
       -0.13816918 0.08060478 0.038272917 0.05280667
000090 d9 c7 c9 bd 64 05 1d bd d0 58 f7 bd 02 9a 8e bc
       -0.09852571 -0.03833522 -0.120774865 -0.017407421
0000a0 96 a3 8a bd 6d 17 e8 bd d8 7a c6 3d c2 08 10 bc
       -0.06769483 -0.11332593 0.09691399 -0.0087911505
0000b0 d0 da df bb b5 70 2d bd d9 53 79 3d c9 97 ca 3d
       -0.0068315044 -0.042343814 0.06087098 0.09892232
0000c0 f3 87 39 bc a0 be ac 3d b0 0c ad bd 9c f5 13 3d
       -0.011323917 0.08434796 -0.084496856 0.036122903
0000d0 6c b9 82 3d df 17 0d 3d 42 f7 93 3d 48 8c fe 3d
       0.06383023 0.034446593 0.07224895 0.124291
0000e0 fd 9d 85 3d d0 94 bf bd 13 f4 f2 3d 89 85 ff bc
       0.065242745 -0.093545556 0.1186296 -0.031191604
0000f0 0f 4f a0 bc 78 22 2a bd fc bb 9d 3c 83 27 16 bb
       -0.019568948 -0.04153678 0.019254677 -0.0022911734
000100 b9 94 eb 3c 87 19 33 3d 68 00 57 3d ec e5 05 3d
       0.02875744 0.043725517 0.05249062 0.032689974
000110 a1 ff 92 3d 13 61 6d bc f6 91 c0 3b 41 b2 58 bd
       0.071776636 -0.014488476 0.005876775 -0.05290437
000120 40 dd 27 3d 20 1a 09 be 22 cc 61 3b f5 db 17 bd
       0.040982485 -0.13388872 0.0034453948 -0.037075
000130 ca 42 dd 3c ce ad 79 bd 13 26 9e bd 4c e1 47 bc
       0.027009387 -0.06095677 -0.07722106 -0.012199711
000140 92 bd 81 bb c8 f8 ff 3c d8 d7 e0 bd 56 16 a5 bd
       -0.003959366 0.031246558 -0.10978669 -0.08060901
000150 e9 ed e9 3d 90 b3 ab 3d 7c e7 d4 bd f4 ab 2e 3d
       0.11422331 0.08383858 -0.10395715 0.042644456
000160 00 98 dd 3c 20 f0 b4 3b 6f 5b 07 3e 5d b6 d1 3c
       0.027050018 0.005521789 0.13218473 0.025599653
000170 2a 83 40 3d c5 53 a3 3d 88 a9 b1 3d ec 2a 39 3d
       0.047000088 0.07974962 0.08674914 0.04520695
000180 6d 9a 5f 3d 3f 25 db 3d 72 f6 d7 bc f4 1c 4c 3d
       0.05459063 0.107004635 -0.026362631 0.0498323
000190 ea 00 84 bd 8a 14 8b 38 98 88 fb bd 57 55 ea bd
       -0.06445487 6.631862e-05 -0.122819126 -0.114420585
0001a0 d4 ea b9 bd e2 db cd bd 84 8f eb 3d d7 e6 6d bd
       -0.09077993 -0.10051705 0.11501983 -0.058081474
0001b0 06 d8 fb bb a6 99 59 bd e2 fb 60 bd a2 a7 aa bc
       -0.007685664 -0.053125046 -0.054927714 -0.020831887
0001c0 1f 2a 5b bd 54 d2 50 bd 99 a9 cc 3d cc 7c 81 3d
       -0.053506967 -0.050981835 0.09993286 0.06322631
0001d0 9c 43 da 3b 79 26 f6 bc de 2f d2 bd c5 24 a3 bc
       0.0066608917 -0.030047642 -0.10263036 -0.019914994
0001e0 1f d6 db 3d e9 f2 31 3d 2c 2f 9b 3d 7d 8f 6b 3c
       0.107342 0.043444548 0.07577357 0.014377472
0001f0 64 82 51 bd 0b d4 38 3d 83 54 e5 3b 99 8b 8c 3d
       -0.05114974 0.045124095 0.0069986 0.06862564
000200 a5 2d 55 3d e2 38 e1 3d 3e 37 ca 3d 2a ab 06 3e
       0.052045483 0.10997178 0.09873818 0.13151231
000210 3f 98 f9 bd ea e0 e7 3d 88 69 d5 bd e0 e9 f9 3d
       -0.12187242 0.11322196 -0.10420519 0.12202811
000220 c2 5c 36 bb db 26 04 bd 33 d4 98 3d d4 51 c0 3d
       -0.0027826284 -0.032263618 0.07462349 0.093906075
000230 50 7e 01 3e f8 bd bc bb a6 76 cb bd 08 44 59 3d
       0.1264584 -0.0057599507 -0.0993474 0.053043395
000240 88 96 07 3b bc 12 2f bd a5 39 a5 3c fe 40 ec bd
       0.002068909 -0.042742476 0.020169089 -0.11535834
000250 7e cf a3 bd 5f 83 ce 3c 68 ee 08 3e fc 57 84 bd
       -0.0799856 0.025209127 0.13372195 -0.06462094
000260 31 e2 16 bd ca e3 e1 bd 2f a4 82 bd 95 64 80 3d
       -0.036836807 -0.110297754 -0.06378972 0.062691845
000270 b2 c3 d8 bd 2c d8 ae bd 4e e5 90 3d cd 9c 70 3d
       -0.10584201 -0.08537325 0.070749864 0.058743287
000280 9f 26 ea 3c 98 ef ac 3d cf 9b 9c bc d5 df ed bd
       0.02858287 0.084441364 -0.019117264 -0.11614958
000290 0f 66 5c 3d 62 91 d7 3c 7a 2e de 3c 44 00 3f bc
       0.05380827 0.026314441 0.027121771 -0.011657778
0002a0 85 3f a2 3c fe 6d ac bd 89 b3 c8 3d 89 0a e3 bd
       0.01980568 -0.08419417 0.097998686 -0.11085994
0002b0 99 f4 d1 3d f6 49 71 3d 5f 2e c3 3c 8d 89 a7 3d
       0.102517314 0.058908425 0.023825822 0.081805326
0002c0 fc e8 ee 3c 86 20 7b bd 96 3c d1 bc 36 e5 87 bd
       0.02916383 -0.061310314 -0.025541585 -0.066355154
0002d0 8a 6b dc bc d4 6e 59 3d 24 2a a8 bd 93 77 c5 3c
       -0.026906747 0.05308421 -0.08211163 0.024104869
0002e0 90 a0 e9 3c 59 af 00 be e5 20 c7 bd 84 ea e5 bd
       0.028518945 -0.1256689 -0.09723071 -0.11226371
0002f0 a0 51 ec bd 12 d7 ab 3c b5 3d 6f bd c8 bd 10 bd
       -0.11539006 0.020976577 -0.058408458 -0.03533724
000300 fb dc d1 3c b2 49 3d 3c 70 c2 f1 bc af ab a2 3d
       0.025618067 0.011553215 -0.02951166 0.07942902
000310 33 cc 0a 3d 46 81 c6 bd db 40 19 3c 7f 0a 9e 3d
       0.033886146 -0.09692626 0.009353842 0.07716846
000320 42 8e 09 be 8f 8b ea bc b2 59 bf bc 8a cd 83 3d
       -0.13433173 -0.028631 -0.0233582 0.06435688
000330 64 1e ce bd 26 e2 db 3d 8e d6 d7 3d fa 5a 84 3d
       -0.1006439 0.10736494 0.1053897 0.06462665
000340 6d d5 74 bd c8 40 5f 3d a5 ca f6 3d 58 99 22 3c
       -0.05977385 0.05450514 0.1205037 0.009924255
000350 e3 60 31 bd c3 14 ef bd e1 3b f1 3d ac d8 17 3d
       -0.04330529 -0.11673882 0.11778999 0.03707187
000360 ad 37 f0 3d 17 8b 97 bd d4 ac 9b ba 03 94 2f 3d
       0.11729369 -0.07399576 -0.0011877068 0.042865764
000370 3c 44 f2 bd ad 74 d4 3b 8a a1 5e 3d ff df 84 3d
       -0.11829421 0.0064836354 0.054353274 0.06488036
000380 a8 05 8a bd 5b 47 80 3d 74 0b f3 3d 3c 28 5d 3d
       -0.0673936 0.0626361 0.11867419 0.05399345
000390 c4 63 ac bd 55 03 92 3d 00 ae 9c 3c f0 a4 d6 3c
       -0.08417466 0.07129542 0.019125938 0.026201695
0003a0 2b 9b 82 3d d3 fc cd 3d 72 55 6b bd 84 2d ad 3d
       0.06377252 0.10057988 -0.057454534 0.08455947
0003b0 a1 fd 81 3d 85 83 87 3d f0 71 81 3d 6d 9b e6 3c
       0.06347204 0.06616882 0.0632056 0.028150285
0003c0 02 98 fc bd 6c 2e 91 bd db 92 62 bc fc f3 44 bd
       -0.12333681 -0.070889324 -0.013828958 -0.048084244
0003d0 cc 56 43 3d 1e 0e f6 bc 60 73 79 bc 6a e9 27 bc
       0.047690198 -0.030036028 -0.015225261 -0.010248521
0003e0 cb 78 30 bd 45 69 4f bd 3d 6b f5 3d 9e a9 0f 3d
       -0.043083947 -0.050637502 0.11983345 0.03507387
0003f0 35 de 7a 3d 99 ba 3a bc 0f a1 87 bd d9 8b eb 3d
       0.06124707 -0.011397027 -0.06622516 0.11501283

bias f4 [64]
000000 11 f3 40 bd 67 d2 90 3d e1 28 aa 3c e6 88 23 3d
       -0.047106806 0.07071381 0.020771446 0.03992548
000010 54 e2 c1 3c f9 83 24 bc 25 22 b6 3d 0b 25 a8 bd
       0.023667492 -0.01004123 0.08893231 -0.082101904
000020 f4 f8 24 bc 93 26 a6 bd f2 c5 91 3d c2 f3 cb 3d
       -0.010069121 -0.08112826 0.07117833 0.099586025
000030 74 dc 4d 3d 1f 8f 10 bc 4c 0f b1 bd cf 38 e9 3d
       0.05025907 -0.008823185 -0.08645496 0.113877885
000040 70 0b 7e 3d 8e ed 66 bd 47 1b 0e bd 25 49 41 bd
       0.062022626 -0.056378894 -0.034693982 -0.047188897
000050 93 25 95 bd 09 ed b7 bd 95 0a 84 3c 7b f3 82 bd
       -0.07282557 -0.08980758 0.016118327 -0.063940965
000060 9c f1 33 3d d8 44 65 bd fc b4 25 3d 64 7a ba 3c
       0.04393159 -0.055973858 0.040455803 0.022763439
000070 26 a2 74 bd d2 c5 04 3d f7 f4 5a 3d cc d4 96 3d
       -0.05972495 0.03241522 0.053456273 0.073648065
000080 46 40 d7 3d 83 3d e7 3d bd a8 8b bd 4c 4a 34 bc
       0.10510306 0.11291029 -0.06819294 -0.011004042
000090 2a d8 c1 3c 13 6f c3 3d 00 82 bd bd 86 40 16 3c
       0.023662645 0.0954267 -0.09253311 0.009170657
0000a0 6d 74 01 bd 7b e5 bc 3d ca 88 8e 3d f9 24 d9 3d
       -0.031605173 0.092234574 0.06959684 0.10602755
0000b0 43 c2 6e bc aa c6 c3 3d d8 15 54 bc 6e e8 32 bd
       -0.014572683 0.095593765 -0.012944661 -0.043678693
0000c0 b8 6f 8a bd 92 6b fa 3c f5 03 79 bd 97 22 6a bc
       -0.0675959 0.030568872 -0.06079479 -0.014290473
0000d0 bf b7 45 3d 8b c6 96 3d 01 97 60 ba 2d ac ed 3d
       0.048270937 0.07362088 -0.0008567423 0.116051055
0000e0 2d c0 22 3d dd b5 4e 3c d6 93 e7 bc b4 8f a5 bc
       0.039734054 0.012616602 -0.028268736 -0.020210125
0000f0 29 ed d7 ba c0 4e e3 bd bd ac 1e 3d d6 1a 82 bd
       -0.0016473877 -0.11099005 0.038738955 -0.06352775

weight f4 [636, 64]
000000 79 29 1d 3d d4 26 13 3d 2f 4c dd 3d 90 0d ac bd
       0.03836963 0.0359257 0.108055465 -0.08401024
000010 ec 2a 8f bd 99 e7 e8 bd 65 63 5c bd 31 2d dc 3d
       -0.069906086 -0.11372299 -0.053805728 0.10750807
000020 b9 31 be bd 5a b4 d0 3d 13 c3 88 bd ba 41 de 3d
       -0.092868276 0.10190649 -0.066778325 0.1085238
000030 66 94 a1 bc 36 d2 ab 3d 40 49 e6 bc 9d 89 ac 3d
       -0.019724082 0.08389704 -0.0281111 0.08424685
000040 c0 f0 46 3c cb 1d a6 3d 28 41 a0 3d 47 da 65 3d
       0.01214236 0.08111151 0.078249276 0.05611637
000050 ce ee d0 bd d7 bb 85 3d 8d 2b ec bd 3f e3 a2 bc
       -0.102017984 0.06529968 -0.11531744 -0.01988375
000060 76 59 42 bd 01 22 3d bd 92 4d 6c 3d cf fc 16 be
       -0.047448598 -0.046175007 0.057691164 -0.14744876
000070 28 ac d7 bd 30 f1 af 3d f4 f5 ce bd 52 4e 93 3d
       -0.10530883 0.08590925 -0.101055056 0.07192673
000080 65 42 c6 bd 33 07 47 bd e1 62 da 3c b6 72 97 bd
       -0.096806325 -0.04859085 0.026658477 -0.07394926
000090 f3 48 e8 bc 67 82 d9 3d 8c 10 24 3c be c7 67 bc
       -0.028355097 0.106205754 0.010013711 -0.014146743
0000a0 fa 26 01 be 41 b9 20 3d e2 6a f0 3d 6e f8 e9 bd
       -0.12612525 0.039239172 0.11739136 -0.11424337
0000b0 11 64 00 3d a1 dd 63 3d 1f 84 59 3d 82 1f 41 3c
       0.03134543 0.055631284 0.053104516 0.011787297
0000c0 21 dc 86 bd 2a 8a dc 3d 8d b4 bb bd ee 16 91 3d
       -0.06584955 0.1076854 -0.09165297 0.070844516
0000d0 7c 22 62 bd 67 44 99 3d 39 65 41 bd c2 b9 94 bd
       -0.055208668 0.0748375 -0.047215674 -0.07261993
0000e0 40 b5 f6 bc b0 16 05 3e a8 e4 80 bd 53 a4 20 bd
       -0.030115724 0.12996936 -0.06293613 -0.03921921
0000f0 f4 a8 c7 3d 32 c0 2d 3d 6c dc 8d bd 1a 2f b0 3d
       0.09749022 0.04241962 -0.06926808 0.08602734
000100 3f 04 0a 3e 70 dc 22 3e 07 ea e3 bd 36 5a ce 3c
       0.13478182 0.15904403 -0.111286215 0.0251895
000110 c0 db 9e 3b 41 1e be 3d 65 bd 8e bd 91 c8 c6 3c
       0.0048479736 0.09283114 -0.06969718 0.02426556
000120 1d 9f 13 be 2f c7 15 bd f5 64 ac 3d 7c b5 d2 bd
       -0.14416166 -0.03656691 0.084176935 -0.10288522
000130 87 5b 3d bd 96 35 8f 3c f4 0c a2 3d 7e ad 75 bc
       -0.046229865 0.017481606 0.07912627 -0.014994977
000140 fc ab 2b 3d 2e 54 0c be a7 3c a7 3b e0 a3 b0 3c
       0.041912064 -0.13703987 0.005103666 0.021562517
000150 23 f7 8f bd e9 f7 db 3d 6f 65 bb bc be 79 31 3b
       -0.070295595 0.107406445 -0.022875516 0.002708062
000160 5e 00 0b be 13 7a f2 3d dd 3f 3a bd f7 b9 02 3e
       -0.13574359 0.1183969 -0.04547106 0.12766252
000170 5e d4 38 3c 90 56 28 be 9e d8 14 3d 70 3c 3f 3c
       0.011281101 -0.16439271 0.036339395 0.011672124
000180 61 1c 3c 3b cd f2 e6 bd 5c 97 5e bd f3 c9 61 3c
       0.0028703439 -0.11276779 -0.054343566 0.013781059
000190 71 8d 50 3b 0f 95 0a bd 94 da 12 bd 91 7e 9a bd
       0.0031822587 -0.03383356 -0.035852984 -0.07543672
0001a0 9f 77 a7 3d 8b 41 ea 3d c2 d4 8e bd 51 2c 22 3d
       0.08177113 0.114382826 -0.06974174 0.039593045
0001b0 08 9a 88 bd ee 0a df 3c 96 7f af bd 5a 11 8a 3d
       -0.06670004 0.027226891 -0.08569257 0.06741591
0001c0 ac 53 ec 3d 7f 50 0a bd 48 ca 0a be 7e 74 80 3d
       0.11539397 -0.033768173 -0.13553727 0.06272219
0001d0 a5 6a 82 bc 8d e4 b8 3d f4 30 1e 3c 5c 19 b1 3d
       -0.015919993 0.090279676 0.009655226 0.08647415
0001e0 30 22 c5 3c 61 c4 09 be e4 fa 1e be bc 45 c4 bd
       0.024064153 -0.13453819 -0.15525395 -0.09583613
0001f0 dc de ec 3d b2 7f 1d 3d 48 60 ce bc 34 60 bd 3d
       0.115659446 0.038451858 -0.025192395 0.09246865
000200 99 ef ab 3d db 73 27 3d 21 c5 7a 3b fd 33 bd 3d
       0.08395309 0.040881973 0.003826447 0.092384316
000210 5a 19 03 be df d6 17 39 31 d1 f8 bd 7f a8 33 3d
       -0.1280264 0.00014480528 -0.12149275 0.043861862
000220 24 e9 be bc 97 2c e6 bd 08 dd b8 bd 68 9c ce 3a
       -0.02330453 -0.112389736 -0.09026533 0.0015763165
000230 f8 19 f9 3b 56 fd ba bd b7 24 6f bd e7 e9 58 3d
       0.0076019727 -0.09130351 -0.058384623 0.05295744
000240 76 ad e3 bd 3b a3 39 bb 9a 3b 16 3d 6c 4c c4 bc
       -0.111170694 -0.0028326053 0.036677934 -0.023962222
000250 ec f0 2f bd 9c 8d 88 bd 71 55 e4 3c 36 a7 55 3d
       -0.04295437 -0.06667635 0.027872773 0.052161418
000260 f8 e5 8a bd 05 ea 84 bd f8 e8 1c be cf f9 15 3e
       -0.06782144 -0.06489948 -0.15323246 0.14646076
000270 93 0f 89 bd 42 3f 61 bc 22 94 a9 3b 4d 34 9f bd
       -0.06692424 -0.013747992 0.0051751295 -0.077736475
000280 26 ca ae bd d2 93 8d bd bb be 38 3d ec a7 39 3d
       -0.085346505 -0.0691296 0.04510377 0.04532616
000290 ab b9 7b 3d a4 f9 ba 3c 7c b2 0d bd bf a1 bd bc
       0.061456364 0.022824116 -0.034594044 -0.023148416
0002a0 0b 28 4c bc 82 47 11 be 00 b1 0f ba 7e 67 56 3c
       -0.012460719 -0.14187434 -0.0005481392 0.013086198
0002b0 94 0b c6 3d 15 e9 7a 3d 91 fa a0 bc b2 41 55 3c
       0.09670177 0.06125744 -0.01965073 0.013016151
0002c0 12 3b 96 3d fe 40 50 3c 60 0d 14 bd 80 9e 23 3c
       0.073354855 0.012710808 -0.036145568 0.00998652
0002d0 7d 27 ca bd b3 db ad bd 11 25 c8 bc d4 13 6f bd
       -0.09870813 -0.0848917 -0.024431737 -0.05836852
0002e0 83 ce e3 bc 81 ba 06 be 98 66 b9 3c 1c c4 3b be
       -0.027808433 -0.13157083 0.022631928 -0.18336529
0002f0 8c 79 0a 3d da 6d 85 3b 42 e0 80 3c 09 75 ec 3b
       0.033807322 0.004071933 0.015731934 0.0072161
000300 ff f1 72 3d bb cb 86 3d b7 8d 0e 3d 9b ce dc 3b
       0.059312817 0.06581827 0.03480312 0.0067384965
000310 71 f8 c8 bd 1c 24 b4 3b fb 36 9a bd 0f 97 8e bd
       -0.098130114 0.0054974686 -0.07530018 -0.06962406
000320 7b e6 de bd 4e 6c b5 3d 4d 4a 07 3d 27 22 be bc
       -0.108838044 0.08858548 0.033029843 -0.023209644
000330 23 18 29 bb 83 a7 c2 3d 23 d6 97 3d 09 f8 a6 bd
       -0.002580174 0.095046066 0.0741389 -0.08152778
000340 00 fa da bc c5 f2 0f bd 4d 44 2e 3d d3 40 08 be
       -0.026730537 -0.035143632 0.042545605 -0.13305978
000350 9d c1 d6 3d 75 8d e2 bc e5 07 ec bd c3 b7 d0 3d
       0.104861476 -0.027655343 -0.11524943 0.101913
000360 d7 12 9c 3d 13 2a 86 bd d4 15 b5 bd 46 1c 9e 3d
       0.07620781 -0.06550994 -0.08842054 0.077202365
000370 cb ee d1 bd f2 c1 c7 3c c3 35 f6 bd 9c 02 12 3d
       -0.10250624 0.024384473 -0.12021973 0.03564702
000380 44 f1 c3 3d 44 67 ad 3c 2f de 89 3d 9a f8 8b 3d
       0.09567502 0.021167405 0.06731831 0.06834526
000390 10 e3 18 3d c0 94 c2 bc fc ce ad bc 43 6b 09 3d
       0.03732592 -0.02375257 -0.021216862 0.03354956
0003a0 72 f8 8f 3d 98 6d 04 be d0 88 50 3d cc 17 a7 bb
       0.07029809 -0.12932432 0.050911725 -0.0050992724
0003b0 92 a5 e0 bd ef 27 dd bb 66 ae 91 bd 3c 9b 08 bd
       -0.1096908 -0.006749145 -0.07113342 -0.033351168
0003c0 ad b0 dd 3d 92 a2 76 3d 0b 9b 7e bd fe 23 cc bd
       0.10824714 0.060213633 -0.06215958 -0.099678025
0003d0 40 d8 51 3d 83 b8 39 bd cc 8b 8d 3d cd 19 6c 3c
       0.051231623 -0.04534198 0.0691143 0.014410448
0003e0 e2 f2 9d bd df fd 1e 3d 6d ef b5 bd a1 25 cf 3d
       -0.07712342 0.03881633 -0.088835575 0.10114599
0003f0 c4 06 35 bd 76 cf de 3d 90 04 aa 3c 22 d0 f4 bc
       -0.044195905 0.10879414 0.020754129 -0.029884402

bias f4 [636]
000000 48 ae 97 3a e8 1c 01 3d b7 5e b3 bd 59 b1 1b 3d
       0.0011572326 0.031521708 -0.087583 0.03801093
000010 56 bf c1 bb 58 01 75 bd 35 a5 c4 3d 71 db ff bd
       -0.0059127016 -0.059815735 0.09601823 -0.12493027
000020 e5 07 db bd d7 eb e8 3c b9 65 0b 3d 2b 09 04 3d
       -0.10694865 0.02843277 0.034032557 0.032235306
000030 df ed 16 bd b7 ca d2 3d a1 d3 88 3d 00 61 db bd
       -0.036847945 0.10292571 0.0668099 -0.10711861
000040 b1 b9 aa bd 16 2d 08 bd 6d 2a e9 bc a7 38 cb bd
       -0.08336199 -0.033246122 -0.028462613 -0.09922915
000050 d2 aa af 3d b1 09 3b bd 8e 08 09 be 11 3b e1 3c
       0.08577503 -0.04566354 -0.1338217 0.027493985
000060 cf 0c c9 3c 16 60 9c bd 3d 49 9d bb 01 2c f4 3d
       0.02454224 -0.076355144 -0.0047999904 0.119224556
000070 1e 2c c6 bd 17 10 12 3d 82 af dc bc 19 65 9f 3d
       -0.096763834 0.035659876 -0.026939157 0.07782955
000080 3a 87 dc 3a 0f 89 0a 3d a1 ad e8 bd 92 6d 57 bd
       0.0016824969 0.033822116 -0.11361242 -0.05259473
000090 65 fa 88 bd f0 f8 f3 bd 4c e3 09 bd 66 de e3 3d
       -0.06688384 -0.119127154 -0.033664033 0.111264035
0000a0 63 1d ca 3d c1 90 bb 3d e3 f7 9d 3c ef be 99 bb
       0.09868886 0.09158469 0.01928324 -0.0046919505
0000b0 16 c5 1a bd 4c 7d 63 bd dd 18 48 bb 67 3a 3a 3d
       -0.037785612 -0.055539414 -0.0030532398 0.045465853
0000c0 d1 c9 70 3d 2a 77 c5 bd 93 bd d7 3d ec d7 c5 3a
       0.058786217 -0.09641869 0.10534205 0.0015094257
0000d0 13 2e 81 3d 6e c6 26 3d a5 1d 70 bc 61 7d fa 3c
       0.06307616 0.04071658 -0.014655505 0.030577363
0000e0 9e d2 ae bd d6 3d c2 3c 01 7d aa bd 43 f7 aa 3c
       -0.08536266 0.023711126 -0.08324624 0.020869857
0000f0 33 9e a3 bc 08 ea 1b bd 4c 35 4e 3d 23 f3 a2 3c
       -0.019972896 -0.038064986 0.050343797 0.019891327
000100 45 86 e0 3b 78 34 3b bd 18 17 67 3d d5 f9 ca bd
       0.0068519437 -0.045704335 0.05641851 -0.09910933
000110 e6 90 36 3d 8f 98 5b bd d5 58 e0 3d ee 50 d2 bd
       0.04457178 -0.053612288 0.10954443 -0.10269342
000120 72 e8 43 3b ba b4 c6 bb f5 75 00 bd d1 54 f2 3d
       0.0029893187 -0.0060640248 -0.031362493 0.11832584
000130 1b 1f d0 bd e6 46 12 3c 48 5b a8 3d e4 81 02 3e
       -0.10162183 0.008928036 0.082205355 0.12744862
000140 f9 c8 b8 3d e4 3d 09 be 3b e9 c1 3d d2 d0 2a bd
       0.090227075 -0.13402516 0.09468313 -0.041703053
000150 69 6b af 3d 42 82 a9 3c 4b 46 2b bd f6 54 ea bc
       0.08565409 0.020691995 -0.041815083 -0.028604966
000160 86 86 77 3d 1a e7 bf bd 52 16 30 3d e8 a3 a0 3d
       0.060431026 -0.09370251 0.042990036 0.07843763
000170 9a 1a 50 bd 8a 52 f1 bd f0 11 0a be 5e c2 ba bc
       -0.05080662 -0.11783321 -0.13483405 -0.02279776
000180 22 c1 e0 3c d1 fb 91 3d d7 2a 85 3d 7c 0c ba bd
       0.027435843 0.07128108 0.06502312 -0.090844125
000190 a8 5d f3 3d a0 41 c8 3c 26 72 11 be ed d8 cf bd
       0.11883098 0.024445355 -0.142037 -0.10148797
0001a0 00 90 0e be 17 28 03 3d 98 2a a8 bb 8a 68 4e bd
       -0.13922119 0.032020655 -0.0051320307 -0.050392665
0001b0 d3 64 16 be cd 5d 6e 3d 27 2d c2 bd b8 02 cc bd
       -0.14686899 0.058194924 -0.094812684 -0.09961456
0001c0 66 90 f3 bd 91 60 ca 3d 30 60 8b bd a6 fc 87 3d
       -0.11892776 0.098817 -0.06805456 0.06639986
0001d0 82 ed b6 3c 4f f4 88 3d 0b c8 06 be f1 90 fd 3c
       0.02233005 0.06687223 -0.13162248 0.030952903
0001e0 40 13 47 3c ca 95 a0 bd b4 c4 5a 3c 2c 36 c0 bd
       0.012150586 -0.0784107 0.013352562 -0.093853325
0001f0 bc 3d de bd 1c 28 84 bd 28 29 97 3d 35 b4 b2 3d
       -0.10851619 -0.06452963 0.07380897 0.08725778
000200 69 86 aa 3c a3 33 f5 3d 9d 4b d3 3d 96 06 1a be
       0.020816045 0.119727395 0.103171565 -0.15041575
000210 f7 4b d8 bd 48 b7 3a 3d e1 e6 eb bd 03 76 61 3d
       -0.10561364 0.045584947 -0.11518646 0.055044185
000220 4e 08 99 3c 5b 97 b1 bd f3 62 86 3d 59 6d 25 bd
       0.018680718 -0.08671447 0.06561842 -0.040387485
000230 1c 61 0b 3d e3 09 18 3d 8c 26 f4 3c 0d 2f eb 3c
       0.034028158 0.037118804 0.029803537 0.028708959
000240 d9 9b 0f be bf dd 04 3d 1c 63 2e bd e9 ea a6 bd
       -0.14024295 0.032438036 -0.042574987 -0.08150274
000250 ef a5 93 bc ed 2b ea bd a6 2e a0 3d e6 03 dc 3b
       -0.01802346 -0.114341594 0.078213975 0.006714332
000260 df f3 00 be a4 52 fa bc 44 6d 98 bd 8f 72 c4 bc
       -0.1259303 -0.030556984 -0.07442716 -0.023980407
000270 0e 9a cd bd 8e bf 8c bd 76 67 1d bc 74 72 03 be
       -0.10039149 -0.06872474 -0.009607187 -0.12836629
000280 2c b5 19 bd 39 77 89 bc 8a d6 3c 3d 50 a7 c7 bc
       -0.037526295 -0.016780483 0.046103038 -0.024371773
000290 68 f0 aa 3d a6 c3 89 bd 20 38 84 3b 00 34 94 3d
       0.08346635 -0.0672677 0.004035011 0.07236481
0002a0 c6 09 b2 bd 70 e2 d4 3d d4 34 1e 3d 3c c0 5a bd
       -0.086932704 0.10394752 0.0386246 -0.053405985
0002b0 c9 72 78 3c 02 c1 88 bc 78 99 e4 bd fe 73 8a bd
       0.015164086 -0.016693596 -0.11162084 -0.06760405
0002c0 7f a0 86 3c 44 16 a0 3d 2c 8c a2 bd 08 c6 0b 3d
       0.016433952 0.07816747 -0.07936892 0.034124404
0002d0 f4 a8 bd 3d d2 6d 88 3d 39 ce be 3d 3b af 16 bd
       0.09260741 0.066615716 0.093166776 -0.036788207
0002e0 18 15 cb 3d c8 da a0 bc 80 bb 17 3d f8 c9 97 3c
       0.09916133 -0.019635573 0.03704405 0.018528923
0002f0 0a c1 b6 3d d8 f0 e8 bd 4c 5a 67 bd f7 17 cd 3b
       0.08923538 -0.11374062 -0.0564826 0.0062589603
000300 62 ed e8 3c d2 b9 e3 3d bc 28 c0 3d 00 e6 ae 39
       0.028433505 0.11119427 0.093827695 0.0003335923
000310 c8 a9 b7 bd ac 86 57 bd 3a 6c e6 bd 00 c9 2f 3d
       -0.0896793 -0.052618667 -0.11251111 0.042916298
000320 00 e6 ea 39 56 45 be 3d 00 26 16 3c 48 25 10 3d
       0.0004480332 0.092905685 0.009164333 0.035191804
000330 20 22 4e bd 70 60 2c 3c 98 08 95 bd 00 95 ca bc
       -0.050325513 0.010521039 -0.0727703 -0.024729252
000340 06 e3 c1 3d a3 e2 8c 3d 44 86 f5 3d 76 8c 41 3d
       0.094671294 0.06879165 0.119885 0.047253095
000350 c0 56 52 bc cc 49 f3 3d a0 3c f0 3c 06 1d a0 bd
       -0.012838066 0.1187931 0.029325783 -0.07818036
000360 cc 1d 46 3d d0 b7 55 3c f0 77 c7 bc 00 00 74 35
       0.04836826 0.013044313 -0.024349183 9.0897083e-07
000370 fe 1f 84 3d 94 2f 79 3d ba 31 a7 bd 77 79 a6 3b
       0.064514145 0.06083639 -0.081637815 0.0050803977
000380 20 84 40 bc f6 16 fe bd 48 71 68 3d 1a 6a cb 3d
       -0.011750251 -0.12406723 0.05674866 0.09932347
000390 ae 2d ef bd 10 d0 c6 bc 18 f5 19 3d 82 af 88 bd
       -0.116786346 -0.024269134 0.037587255 -0.066741005
0003a0 56 16 98 bd e0 79 3f 3d 5e b8 ca bd 82 b4 e9 bd
       -0.07426135 0.04674709 -0.098984465 -0.11411382
0003b0 8c 72 d2 bd c7 19 b7 3b 83 10 8d 3d 00 a0 96 3b
       -0.10275754 0.0055877897 0.06887915 0.00459671
0003c0 44 85 db bd ea 40 a2 3d b4 e1 d8 3d c8 36 1f bd
       -0.10718778 0.079225376 0.105899245 -0.038870603
0003d0 e0 6f dd bb 3c 77 78 bd 18 81 8e bc 76 78 9c bd
       -0.0067577213 -0.060660586 -0.017395541 -0.076401636
0003e0 2c fe c1 3d 78 75 cb 3d 24 48 43 3d 6a 50 85 bd
       0.094723076 0.09934515 0.04767622 -0.065094784
0003f0 48 0b 88 bd ec 11 f2 3d be 1e 9c bd 68 5a bc bd
       -0.06642777 0.118198246 -0.07623051 -0.09196931
