targetQNetwork.pth (torch, 399247 bytes, 6 tensors)

weight f4 [64, 836]
000000 cb 60 87 3a 5b f2 99 3c fd 83 0c 3c 11 8b a1 3c
       0.0010328529 0.018792322 0.00857639 0.019719632
000010 1d 43 46 bb c2 7b 47 3c 8b 95 51 3b 56 9b 03 bd
       -0.0030252405 0.012175502 0.0031980004 -0.03213056
000020 83 8a bb 3c 7a fd 2c bd 45 31 81 3c db ec d3 bb
       0.022893196 -0.04223392 0.015770564 -0.0064674444
000030 86 61 a5 bc 22 ef 90 bb 07 88 04 3d 9b e4 2a 3d
       -0.020188104 -0.004423038 0.03235629 0.04172192
000040 da 69 14 bc 36 a8 cf bc 73 d3 26 3b da a5 3c 3c
       -0.00905844 -0.025348764 0.0025455623 0.0115141515
000050 48 22 5d 3b d5 08 83 3c e0 aa 32 bd 3e 41 29 3d
       0.0033742357 0.015995422 -0.04361999 0.041321985
000060 77 d1 d1 bc 76 7f b6 bc a1 41 eb 3c d5 3f 5e ba
       -0.025612576 -0.022277575 0.028717818 -0.00084781396
000070 34 5c 06 3d 09 4c 2d 3c 49 0a 92 bc d5 ab f3 3c
       0.032802776 0.01057721 -0.01782717 0.029745022
000080 03 a5 97 bb 19 89 24 bc 5a 11 95 3b dd d4 d5 3a
       -0.004627825 -0.010042452 0.0045491876 0.0016314049
000090 34 51 8a 3c 96 0e 18 bc de 28 4d 3c 97 a3 65 3b
       0.016884424 -0.009280821 0.0125219505 0.0035040134
0000a0 c4 3a 1c bc cd 08 7c 3c 65 30 c0 3c 62 57 09 bc
       -0.009535495 0.015382958 0.023460576 -0.00838265
0000b0 d7 1d da bc 56 35 f9 3b 13 a7 2f bd db d9 40 3c
       -0.026625557 0.007605235 -0.042883944 0.011770691
0000c0 36 7a 25 bb c6 08 f3 3c 95 f7 87 bb 0d 99 b1 bc
       -0.0025249845 0.02966727 -0.004149387 -0.021679426
0000d0 ee 13 bd 3b c5 b6 5e bc a5 8f 02 3d 7b 44 0e 3d
       0.005770198 -0.01359338 0.03187527 0.034733277
0000e0 7c ac bc bc e1 c8 36 3c 5d 49 5a b9 c9 1a 0a 3d
       -0.023031466 0.011156292 -0.0002081743 0.03371695
0000f0 df 3b 3a bc 2b b2 bf bc a0 b2 82 3c ff 8b 1f 3d
       -0.011366813 -0.023400387 0.015954316 0.03895187
000100 a0 31 84 3a a8 ad 7a bc 83 57 fb bc 28 20 8e bc
       0.001008559 -0.015300192 -0.030681377 -0.017349318
000110 bb ad 4b 3a 69 a2 52 bd 7d 04 70 3c 86 ab b1 bb
       0.00077697233 -0.051424418 0.014649508 -0.0054220585
000120 c0 0a 28 bb b4 eb 31 3c d1 16 9b 3c 5a 2c e6 bc
       -0.0025641173 0.010859419 0.018931778 -0.02809732
000130 7c b8 4d 3c 6a 73 af 3b f9 87 86 bc 8d bc c1 3c
       0.0125561915 0.0053543346 -0.016422259 0.023649478
000140 df dd b3 bc 9a 21 2f 3c bc 85 30 bb ca af 73 bc
       -0.021956382 0.010689164 -0.002693518 -0.014873454
000150 b2 f5 af 3b 54 bb a1 bc 45 97 d9 3c 7a f5 9a 3c
       0.0053698653 -0.019742645 0.026561389 0.01891588
000160 50 45 7f bc 61 9e 7c 3c 01 20 88 3c 8a bd 0e bd
       -0.01558049 0.01541862 0.016616823 -0.034848727
000170 5c b7 b0 bc 04 aa dc 3b 24 f4 e0 3c 52 a2 07 bd
       -0.021571808 0.0067341346 0.027460165 -0.033113785
000180 52 74 fe bc 3d ca 48 bb bb 7d 70 3b bc b0 a4 3c
       -0.031061325 -0.0030638122 0.0036696035 0.020103805
000190 fc 8d ab bc 8b 9e 51 3b 43 34 bf bc 74 22 79 3c
       -0.020941727 0.0031985368 -0.02334035 0.015205968
0001a0 9e 9b 91 bc 6b d2 6d 3c ef 5e fb 3c 81 5a 52 bc
       -0.0177744 0.0145155 0.030684916 -0.012838961
0001b0 dc a7 83 3a f3 72 ea bc 40 dd 4a 3c 18 f2 d8 bb
       0.0010044533 -0.028619265 0.012381852 -0.0066206567
0001c0 3d 23 37 bb 82 46 45 3a a0 29 07 3d 09 ba b2 3b
       -0.0027944588 0.000752546 0.03299868 0.005454306
0001d0 70 88 d6 3c 96 3c 63 bb f2 21 d7 3c 0d af 84 bc
       0.026188105 -0.0034673563 0.026261304 -0.016196752
0001e0 69 fa 11 bc da 85 0d bc 33 20 30 bc f2 30 8b 3c
       -0.0089098 -0.00863787 -0.010749864 0.016991112
0001f0 8c 51 8f 3c 7e ef cf bb 56 c8 57 ba 60 b6 14 bd
       0.01749494 -0.0063456884 -0.00082314515 -0.03630674
000200 6c bc a3 3c f2 7a c8 3b 3f 53 55 bd 85 7f c9 bc
       0.019987307 0.006118172 -0.052081343 -0.024596939
000210 aa c8 ef 3c 9a 41 f3 bc 4f 3f 9f 3c 07 62 9f 3c
       0.029270489 -0.029694367 0.019439368 0.019455923
000220 f5 7a ba 3c dc 0e 98 bc f9 32 9f bb d7 da 6d bc
       0.022763709 -0.018561773 -0.0048583713 -0.0145175075
000230 66 43 8c bc 12 b7 29 3d 52 fe 90 3c 7c 01 f8 bc
       -0.017121982 0.041434355 0.017699394 -0.030274145
000240 99 e7 ff 3c 51 ca 04 bc 7c 73 f1 bc f4 1c 0e 3d
       0.031238364 -0.008104877 -0.029474013 0.03469558
000250 d5 da a9 3c ef 35 37 3b 48 23 81 bb 52 24 d0 3b
       0.02073423 0.002795573 -0.0039409734 0.006351986
000260 3f 21 f6 3c 1d 80 9d bc ca c1 8b 3c 74 5a 8d 3c
       0.03004515 -0.019226128 0.01706018 0.017255045
000270 3e ce 04 bc 53 8c 29 bc aa db 10 3d cd 86 e0 bc
       -0.008105813 -0.010348397 0.035365738 -0.027408028
000280 db 20 ac 3a 64 2b 5e 3c 86 e8 02 bd ac 49 8a bb
       0.001313235 0.01356015 -0.031960033 -0.004220208
000290 5f 11 a7 bb 81 d2 8d 3c 3b 17 19 3c 08 38 93 3b
       -0.0050985063 0.01731229 0.0093439175 0.0044927634
0002a0 da 22 27 bc 53 2c f3 bc e7 af fd bb 0d cb 1d 3c
       -0.01020118 -0.029684221 -0.0077419165 0.009630931
0002b0 a2 e4 eb bc df 49 6a 3c 92 2e 39 bb 8f b2 05 3d
       -0.028795544 0.014299839 -0.0028256518 0.03264099
0002c0 29 33 2c bc 28 ff 0f bc ef e7 00 bd 1c 9d d0 bc
       -0.010510244 -0.008788861 -0.03147119 -0.02546554
0002d0 4c c2 45 bc 38 1e 63 bc 2c 8e a9 3c 79 e2 d7 bc
       -0.01207025 -0.013862185 0.020697676 -0.026353108
0002e0 38 01 38 bb d2 55 b1 bc 86 74 fe bb a4 3e ef 3c
       -0.0028076898 -0.021647368 -0.0077653555 0.029204674
0002f0 70 ac 0c bc be c8 e7 3c a4 cf 48 3c 58 af d8 bc
       -0.008586034 0.028293964 0.012256537 -0.026450798
000300 dd e5 b8 bc a5 0f 51 3c d7 8a 6f bc 9f e1 4d 3c
       -0.022570545 0.012760078 -0.014620504 0.012565999
000310 32 e0 46 3b 40 5e 26 bd 75 78 9c 3c d7 35 c6 3b
       0.0030346033 -0.040617228 0.019100407 0.0060488987
000320 ed b7 0a bd 16 d3 99 bc 32 b6 8e bb 26 97 9b ba
       -0.03386681 -0.018777411 -0.0043552155 -0.0011870607
000330 e4 64 c6 bc 2f 8e 32 bc 3c fd 94 bc 15 89 81 bc
       -0.02421803 -0.010898157 -0.018187158 -0.015812436
000340 61 63 28 bd 5d eb 0a 3d 42 d3 c8 bc 3c 9c e8 3a
       -0.0411104 0.033915866 -0.024514798 0.0017746757
000350 25 90 4e 3d 42 76 04 bc ae c0 8d bb 15 14 5e ba
       0.050430436 -0.0080848355 -0.0043259477 -0.00084716204
000360 2a 6e a3 39 b3 66 ae bb 7f c9 01 bd 92 7d 82 bc
       0.0003117186 -0.0053223013 -0.031686302 -0.015929017
000370 14 79 74 bc ef 80 9f bb 36 93 26 3c ee 23 d6 3c
       -0.014921445 -0.004867665 0.010166934 0.02614018
000380 e9 38 e2 bb 69 2f 8d ba 25 65 87 3c 78 f7 b8 3c
       -0.006903757 -0.0010771576 0.016527722 0.02257894
000390 ca 39 4d 3c c3 d1 e6 bc 56 8c 72 3c 67 db 4a bc
       0.012525985 -0.028176194 0.0148039665 -0.012381411
0003a0 5e ef 1e 3c 2a a9 f2 3a cb 54 91 bb 59 09 b2 bc
       0.009700624 0.001851355 -0.004435157 -0.021732973
0003b0 4d 79 e7 3c ca b4 b4 bb 94 d3 ec bc 9d 0c 61 3a
       0.028256083 -0.005514716 -0.028909482 0.00085849484
0003c0 08 b6 e2 bc 94 ca 8d 3c 31 e0 fe 3b b6 04 da 3c
       -0.02767469 0.01730851 0.0077781905 0.026613574
0003d0 c0 9a 7c 3c 76 2d cd 3b 7a b0 04 3d fc a9 4e 38
       0.015417755 0.006261523 0.032394864 4.9272538e-05
0003e0 a8 b1 3a 3b c5 14 89 3c 31 37 6a 3c 0a 1e 88 bc
       0.002848724 0.016733536 0.014295385 -0.016615886
0003f0 4d c5 ac 3c 60 c5 85 bc 45 ae e7 bc c6 0b 2c bc
       0.021090174 -0.016329467 -0.02828134 -0.010500854

bias f4 [64]
000000 e9 eb f7 bc b1 89 65 bc 54 79 a8 3c fc 36 0a bd
       -0.030263858 -0.014009879 0.020565666 -0.033743843
000010 9e 3a 70 3c a8 aa d2 3a ff dd bc 3c 78 86 07 3d
       0.014662413 0.0016072588 0.023055075 0.033087224
000020 86 98 52 3c 56 d7 ae bc b6 65 8f 3c 57 06 2f bc
       0.012853747 -0.021342915 0.017504554 -0.010682664
000030 bb 0c 3e 3b 1c f7 fa 3c 21 39 9c bc cc e9 ad 38
       0.0028999287 0.030635409 -0.01907021 8.292831e-05
000040 4d f0 ce 3c bb 4e e3 bc a0 e9 ad 39 80 ac 01 bc
       0.025261069 -0.027747503 0.00033171196 -0.007914662
000050 bc d7 3c bc 86 68 c5 bc 23 ee c9 bc 09 5a 95 bc
       -0.011526044 -0.024097692 -0.024649685 -0.018231409
000060 3f 9b 38 3c 99 f9 a8 bc db 22 d3 3b d2 9f 7e bc
       0.011267482 -0.02062683 0.006443364 -0.015541034
000070 27 7f da bb ec 2d 8d 3b a6 81 d3 3b 72 e3 45 3c
       -0.00666799 0.004308453 0.0064546643 0.012078153
000080 66 a1 fd 3c 1e d4 70 3c 6f 77 12 bd d9 f1 c5 3c
       0.03096075 0.01469901 -0.035758432 0.024163174
000090 de 10 02 bd 98 2f dc bc 0e fb 26 bc 87 03 c4 3b
       -0.031754367 -0.026878163 -0.010191692 0.005981866
0000a0 7b 1d e5 3c ad 83 86 bc 73 15 94 3c c3 02 20 3c
       0.027968159 -0.01642021 0.018076634 0.009766283
0000b0 c6 87 f9 3c 5a 92 c7 3b 49 dc e4 3c 30 fb b3 3b
       0.03046025 0.0060904445 0.027937071 0.0054925904
0000c0 0d 05 0d bc e0 77 08 bd 1b 2e 2b bc 6e 57 e6 3c
       -0.008607161 -0.033317447 -0.010448004 0.028117862
0000d0 be 1d fd bb 22 2d 1b 3c 4d 80 a1 3c 25 6d 2e bc
       -0.007724493 0.00947121 0.019714499 -0.010646139
0000e0 42 34 aa bc 6f 59 b0 3c 42 ea f5 bc d1 97 61 3c
       -0.020776872 0.02152702 -0.03001893 0.013769106
0000f0 0d 9b f9 bc ea c8 9f 3c 02 00 ab 3c 67 27 32 bc
       -0.030469442 0.019504983 0.020874027 -0.010873652

weight f4 [64, 64]
000000 3c 36 59 bd f8 f2 f3 3d 6e be 74 bd c0 84 13 bd
       -0.053030238 0.11911577 -0.05975192 -0.036015272
000010 05 34 74 3d 9a 51 b0 bb fa 96 61 3d d6 cd 88 3d
       0.059619922 -0.0053808214 0.055075623 0.06679885
000020 48 68 bf 3d f6 9b 3e 3d 46 9a 6a bd 15 90 9c 3d
       0.09346062 0.046535455 -0.057276033 0.07644669
000030 eb 64 34 3d ad 80 96 3d 17 62 f0 bd 74 f6 b0 3d
       0.044041555 0.07348762 -0.11737459 0.08640757
000040 2f e4 8d 3d 5c d7 3a bd 8b e5 bb bc ad 75 d9 3d
       0.06928288 -0.04561554 -0.022936603 0.10618148
000050 0e 0e e6 3d b9 82 02 bc 55 58 cf 3d ca f7 02 3d
       0.112331495 -0.007965737 0.1012427 0.03197459
000060 fa 30 7f bc 5e c7 da 3d 35 74 96 bc ab cf 88 bb
       -0.015575642 0.106825575 -0.018365959 -0.0041751466
000070 5b 71 7f 3c 78 82 fd bd 73 11 9b 3d 5f dd 14 bd
       0.015590991 -0.123784006 0.075716875 -0.03634393
000080 65 a9 09 be f8 e5 9a 3d 13 4d 1e 3d 50 a3 41 3d
       -0.13443525 0.07563394 0.038647722 0.047274888
000090 bb cd bd bd 57 90 22 bd f4 d2 ec bd 00 eb 87 bc
       -0.092677556 -0.039688434 -0.115636736 -0.016591549
0000a0 df bd 8b bd 79 4c db bd 60 ce c1 3d d7 7f a7 bb
       -0.068233244 -0.107079454 0.09463191 -0.0051116752
0000b0 28 1b 00 bc 09 bd 1b bd a5 72 75 3d 4e 88 c7 3d
       -0.007818975 -0.038022075 0.059923787 0.09742795
0000c0 fd db 67 bc de 3a a8 3d 78 a5 a5 bd c9 76 0b 3d
       -0.01415157 0.08214353 -0.08088201 0.03404883
0000d0 a9 3d 80 3d fa ec 0a 3d be 08 8a 3d 82 11 ef 3d
       0.06261761 0.033917405 0.06739949 0.11673261
0000e0 c2 7a 74 3d ea e7 b3 bd 62 d0 f0 3d 5a 80 fa bc
       0.059687383 -0.087844685 0.11758496 -0.03057878
0000f0 1a 63 af bc 4c 67 2a bd e5 71 83 3c 6f c8 66 3a
       -0.02140956 -0.041602418 0.01604552 0.00088036706
000100 ea cf ca 3c 03 11 2c 3d c9 44 5f 3d 16 f6 0d 3d
       0.024757344 0.04200841 0.054508958 0.034658514
000110 09 18 8f 3d 6f 83 8a bc 59 34 a1 3b 4f 50 51 bd
       0.06987006 -0.016908376 0.0049195704 -0.05110198
000120 d6 eb 22 3d f9 db 05 be 67 96 b7 3b ac 43 11 bd
       0.039775692 -0.13072194 0.005602646 -0.035464928
000130 9b 10 e1 3c 00 a5 68 bd e0 10 95 bd f9 72 56 bc
       0.027473738 -0.05679798 -0.07278609 -0.013088935
000140 b9 f2 84 ba 98 80 06 3d 4b ce de bd 27 80 a6 bd
       -0.0010143138 0.03283748 -0.10879191 -0.08129912
000150 3b 8b e8 3d 9d ac a1 3d 2c 0f c5 bd 30 38 23 3d
       0.11354681 0.078942515 -0.096220344 0.039848506
000160 c5 d0 b0 3c 6b 93 fd 3b e3 a7 04 3e de c1 c0 3c
       0.021583924 0.007738521 0.12954669 0.023529943
000170 e9 e4 30 3d f1 13 9a 3d 58 27 a8 3d b2 15 3d 3d
       0.043187056 0.07523335 0.08210629 0.04616327
000180 c7 fd 54 3d 4b 45 cd 3d 6b 9c c7 bc a0 30 37 3d
       0.051999833 0.10022982 -0.024366578 0.044724107
000190 1b 9e 80 bd da 05 e3 ba c1 63 f0 bd 89 2b db bd
       -0.06280156 -0.001732047 -0.117377765 -0.10701663
0001a0 bb f5 b2 bd b4 c4 cb bd 43 9f df 3d 02 8c 62 bd
       -0.087382756 -0.099496275 0.10919049 -0.055309303
0001b0 54 7e 90 bb bc 4e 60 bd 6a 08 62 bd 87 16 a2 bc
       -0.0044095907 -0.054762587 -0.055183806 -0.019786132
0001c0 3d 72 4d bd f3 ab 53 bd 42 8a bd 3d 2c 8b 7e 3d
       -0.050157774 -0.051677655 0.09254886 0.062144443
0001d0 8b 26 9a 3b b1 76 d0 bc fe 97 c7 bd 7f e7 7f bc
       0.0047043017 -0.025447221 -0.09745787 -0.015619158
0001e0 0a cc d3 3d 17 df 39 3d 6a e6 9c 3d 72 b8 7e 3c
       0.10341652 0.04537877 0.076611355 0.015546905
0001f0 88 ad 41 bd 6b e1 3e 3d 83 f6 48 3b 1f 29 8d 3d
       -0.047284633 0.046601694 0.003066451 0.06892609
000200 ad 07 54 3d 6b f0 d3 3d 11 4a c8 3d b6 b3 01 3e
       0.051765133 0.103485905 0.09779752 0.1266621
000210 f1 e4 f1 bd 5c 94 e5 3d 58 4f d0 bd 55 e2 f0 3d
       -0.11811245 0.11209938 -0.101713836 0.117619194
000220 47 67 85 bb 3c 56 e9 bc 11 3e 91 3d 6c 7f ba 3d
       -0.0040711495 -0.028483503 0.07091916 0.09106335
000230 ae 84 fa 3d b8 a5 89 bb 66 30 c6 bd f2 81 55 3d
       0.12232338 -0.0042006634 -0.096772 0.05212588
000240 ed 98 ae 3b 77 80 24 bd 48 df 9c 3c 18 0a e9 bd
       0.005328289 -0.040161576 0.019149438 -0.11378878
000250 d6 fc a5 bd fa 6d af 3c f1 f6 03 3e cc e6 77 bd
       -0.08104865 0.021414746 0.1288717 -0.06052284
000260 0a 09 12 bd fe d5 d2 bd 02 70 7c bd b4 23 76 3d
       -0.03565315 -0.10294722 -0.061630256 0.060092643
000270 fc 8b d9 bd 7a 98 b0 bd de f0 8c 3d ae e7 61 3d
       -0.10622403 -0.086228326 0.06881879 0.055152588
000280 66 05 fb 3c f5 f3 ac 3d c0 26 a2 bc 64 b4 e3 bd
       0.030642223 0.084449686 -0.019793868 -0.11118391
000290 44 01 5a 3d da b9 e1 3c 38 d2 e9 3c 98 4c 2e bc
       0.053223863 0.027554441 0.028542623 -0.010638379
0002a0 fa 5f a8 3c 3d 8d a8 bd a3 52 c3 3d 8c a2 d5 bd
       0.020553578 -0.08230064 0.09537246 -0.10431394
0002b0 2a 54 ca 3d 3d cc 70 3d 74 c8 b5 3c c1 8a a8 3d
       0.09879334 0.058788527 0.02219031 0.0822959
0002c0 be da e5 3c b6 1e 81 bd 91 d2 cb bc b6 aa 80 bd
       0.028058406 -0.06304686 -0.02488068 -0.062825605
0002d0 8c af bd bc ec ff 54 3d f5 59 9e bd fb bc a4 3c
       -0.023154996 0.05200188 -0.07732002 0.020109644
0002e0 dc 2b c5 3c b0 71 fb bd c3 ee be bd 95 08 e0 bd
       0.024068765 -0.122775435 -0.09322884 -0.10939137
0002f0 71 e3 e1 bd bb 23 a7 3c 40 eb 6b bd c2 d1 11 bd
       -0.11029709 0.02040278 -0.0575974 -0.03560043
000300 a1 ea af 3c c6 98 6b 3c 94 b8 cc bc a6 8c 94 3d
       0.021474184 0.014379686 -0.024990357 0.07253389
000310 49 bb 16 3d bd 9d c2 bd ac e8 4c 3c a8 34 a0 3d
       0.036799703 -0.095027424 0.012506645 0.078225434
000320 2e e0 06 be 42 51 d5 bc 7c 4f 9b bc 45 4a 79 3d
       -0.13171455 -0.026039723 -0.0189588 0.060861845
000330 a4 d8 c1 bd f2 75 cf 3d e8 30 cf 3d 0f 13 77 3d
       -0.09465149 0.10129918 0.1011675 0.06032091
000340 3b e0 77 bd 2c 6a 4a 3d b0 70 f6 3d 20 e5 32 3c
       -0.060516577 0.04941766 0.12033212 0.0109188855
000350 31 e4 37 bd 17 45 e8 bd 48 97 e4 3d 9c 63 19 3d
       -0.044895355 -0.11341303 0.11161667 0.03744851
000360 bb a4 ec 3d f5 cf 8b bd ae 20 02 bb 07 8f 2e 3d
       0.11554857 -0.06826774 -0.0019855904 0.04261687
000370 2e ae ee bd c1 70 8b 3b cc bb 60 3d 7e f2 87 3d
       -0.11654316 0.0042553847 0.054866597 0.066380486
000380 7e 29 87 bd 72 c6 7a 3d a7 e9 e7 3d ed 8e 48 3d
       -0.06599711 0.06122441 0.113238625 0.04896443
000390 20 c2 a6 bd 43 cd 94 3d 0b 14 b2 3c 6f 81 d3 3c
       -0.08142495 0.07265713 0.021738073 0.025818555
0003a0 32 6a 7a 3d f0 50 ca 3d 2d 81 6c bd 48 fe a6 3d
       0.061136432 0.09878719 -0.05774038 0.08153969
0003b0 a0 2e 71 3d d0 49 88 3d 3c 6c 82 3d 64 6c e6 3c
       0.058882356 0.066547036 0.063683 0.028127857
0003c0 fe 03 ec bd ae 76 85 bd 12 20 79 bc 89 7d 32 bd
       -0.11524199 -0.06516777 -0.0152054 -0.04357675
0003d0 06 40 31 3d e3 6d 00 bd ea 77 37 bc 3c d1 fc bb
       0.043273948 -0.031354796 -0.011198023 -0.0077153724
0003e0 8d 6b 32 bd c2 0a 4d bd f4 1f f0 3d ad c1 0d 3d
       -0.0435596 -0.050059088 0.117248446 0.03460853
0003f0 b7 32 74 3d a1 ce 5c bc 41 e2 81 bd 9b 08 e2 3d
       0.059618678 -0.013476999 -0.06341983 0.110367976

bias f4 [64]
000000 d1 18 4a bd 29 c6 8c 3d 72 cb a0 3c 42 77 20 3d
       -0.049340073 0.068737336 0.01962826 0.039176233
000010 b6 0c ba 3c b3 c8 11 bc 96 f3 b5 3d dc 3e 9d bd
       0.02271114 -0.008897948 0.08884351 -0.07678005
000020 e9 7a 4b bc e2 66 a8 bd 76 b2 85 3d c1 5e c0 3d
       -0.012419441 -0.08222748 0.06528179 0.09393073
000030 5a bd 38 3d 1e 32 15 bc 6e 1d a5 bd c5 b5 e4 3d
       0.045102455 -0.009106187 -0.08062254 0.11167482
000040 be 92 69 3d 3d 27 53 bd 36 92 19 bd ad 84 42 bd
       0.05702471 -0.051551092 -0.037492953 -0.04748981
000050 08 66 89 bd 55 a7 aa bd 5e 09 5a 3c 7b 44 72 bd
       -0.06708914 -0.08332697 0.013307897 -0.05914734
000060 6c b2 2f 3d a7 cb 5d bd d5 42 17 3d e6 3f b7 3c
       0.042894766 -0.054149296 0.03692897 0.022369336
000070 15 42 7c bd c7 98 e6 3c 43 99 63 3d 44 c5 92 3d
       -0.06158646 0.028149022 0.055566084 0.07166532
000080 9b 52 ca 3d ad aa e4 3d 41 91 81 bd 4a ef 01 bc
       0.09879037 0.11165366 -0.06326533 -0.007930586
000090 ee 78 d4 3c 2d d2 bb 3d 56 5b b0 bd 31 b7 30 3c
       0.02593657 0.09170947 -0.08611171 0.010785864
0000a0 03 11 f3 bc d1 0c b9 3d 60 52 8f 3d 49 15 cf 3d
       -0.029671198 0.09035648 0.06998134 0.10111482
0000b0 12 b8 6a bc 9e 81 bd 3d d9 3a 79 bc 40 7e 38 bd
       -0.014326112 0.09253238 -0.015211784 -0.045042276
0000c0 79 d0 7d bd e9 2c eb 3c f5 2e 70 bd 0f 37 24 bc
       -0.061966393 0.028707938 -0.05863853 -0.010022893
0000d0 78 a3 31 3d 8a eb 95 3d 29 29 9b bb d1 da df 3d
       0.043368787 0.07320316 -0.0047351313 0.10930408
0000e0 9f 24 1b 3d bb 51 61 3c 27 c3 fa bc 74 60 a7 bc
       0.03787672 0.013752396 -0.030610634 -0.020431735
0000f0 5c 55 24 bb 2a 48 da bd cc 1c 11 3d c6 2d 86 bd
       -0.0025075292 -0.106582955 0.035427853 -0.06551699

weight f4 [636, 64]
000000 cc 3d 2a 3d bb 0f 06 3d 85 d9 da 3d 39 b9 a5 bd
       0.04156284 0.032729845 0.1068602 -0.08091969
000010 a5 71 88 bd 7c 65 e8 bd 51 0b 58 bd 7e 4c ce 3d
       -0.06662301 -0.113474816 -0.052745167 0.100731835
000020 08 d0 b5 bd 15 96 c6 3d 32 4f 83 bd bc c1 da 3d
       -0.088775694 0.096965946 -0.0641159 0.10681483
000030 d0 c5 a4 bc 7f cf 9e 3d 8c 2f e4 bc d1 c1 a3 3d
       -0.020113856 0.077544205 -0.027854703 0.07995952
000040 f5 63 65 3c 7b 53 a5 3d fe ab 9f 3d b7 41 6d 3d
       0.014000882 0.08072563 0.07796477 0.057924
000050 01 ff cb bd 26 3b 85 3d 59 e1 de bd f5 3c b4 bc
       -0.099607475 0.06505422 -0.108828254 -0.022001723
000060 01 9c 2b bd 31 29 2d bd 71 50 5f 3d e6 91 14 be
       -0.041896824 -0.04227561 0.054520074 -0.14508781
000070 c2 ea d0 bd 13 a4 a8 3d 22 32 ce bd 66 99 87 3d
       -0.102010265 0.0823442 -0.10068156 0.06621055
000080 1b 72 bc bd 47 1a 43 bd ef 24 be 3c 05 97 94 bd
       -0.092014514 -0.047632482 0.02321097 -0.07255367
000090 ff 90 e3 bc 0d 8e d8 3d c9 ea 20 3c 97 77 63 bc
       -0.0277791 0.10573969 0.009821602 -0.013883493
0000a0 33 8f f9 bd 2a 14 28 3d 87 76 ee 3d 94 a6 db bd
       -0.12185516 0.041034855 0.11643701 -0.10725132
0000b0 94 cb 05 3d e8 f3 5a 3d 57 4b 54 3d 45 ad 45 3c
       0.03266485 0.053455263 0.051829662 0.012065236
0000c0 d7 05 83 bd b8 71 d4 3d bf 3d b0 bd 0b 6b 8e 3d
       -0.06397598 0.10373253 -0.08605527 0.069540106
0000d0 a4 ea 5a bd df ac 8f 3d 03 7a 2e bd 2b 48 8e bd
       -0.053446427 0.070153944 -0.04259683 -0.06947359
0000e0 64 ba da bc 3d a5 03 3e 40 c4 83 bd 5e 2b 1c bd
       -0.026700206 0.12856002 -0.06433916 -0.038127296
0000f0 34 7e c7 3d d6 d3 37 3d ab 1b 83 bd b7 aa a1 3d
       0.09740868 0.044879757 -0.064017616 0.078938894
000100 e4 35 00 3e b9 9f 19 3e e1 ac dd bd 38 38 bf 3c
       0.12520558 0.15002336 -0.1082399 0.023342237
000110 82 eb 19 3c c6 c0 b7 3d e7 54 8d bd 03 6c c2 3c
       0.009394528 0.089723155 -0.069009595 0.023733145
000120 be 7e 0b be 90 f2 0d bd d4 97 a5 3d 1c 17 cd bd
       -0.13622567 -0.034655154 0.080855995 -0.100141734
000130 9f 14 3f bd 73 e8 6b 3c c4 2c 97 3d d0 a5 88 bc
       -0.046650525 0.014398682 0.07381585 -0.016680628
000140 51 15 17 3d 12 2b 02 be c5 2f 89 3b a2 66 bc 3c
       0.036885563 -0.12711743 0.004186603 0.022998158
000150 ae 31 80 bd 03 f6 d9 3d 59 41 c6 bc 73 bd 88 3b
       -0.06259476 0.10642626 -0.024201082 0.0041729747
000160 b1 71 07 be 82 69 e6 3d e8 20 24 bd 1a 2a fa 3d
       -0.13226964 0.11250593 -0.040070444 0.122150615
000170 a8 25 0e 3c 5a e6 1f be 1e ef 21 3d 15 37 04 3c
       0.00867597 -0.15615216 0.03953468 0.008069773
000180 70 03 9d 3b 90 ac da bd a0 c4 4c bd 43 b4 88 3c
       0.0047916695 -0.10677445 -0.049992204 0.016687518
000190 87 14 86 3a 1b 86 00 bd b2 67 1a bd f7 53 9a bd
       0.0010229506 -0.031377893 -0.037696548 -0.07535546
0001a0 62 3f a2 3d 8c 7c e1 3d e4 f2 8c bd 87 a8 1a 3d
       0.079222456 0.110100836 -0.06882265 0.037758376
0001b0 9e 3a 80 bd 2e d8 ee 3c ca 7f a2 bd 16 c2 88 3d
       -0.0626118 0.029155817 -0.0793453 0.06677644
0001c0 f2 56 e0 3d 29 2a 03 bd 0f 93 06 be 96 78 69 3d
       0.109540835 -0.03202263 -0.13142036 0.056999765
0001d0 e3 a1 9d bc c4 db b6 3d 88 a8 bf 3b f9 10 af 3d
       -0.019242233 0.08928636 0.005848948 0.08548159
0001e0 a8 7c b9 3c 4f 64 02 be ef 86 16 be 67 76 c0 bd
       0.022642449 -0.12733577 -0.1469991 -0.093975835
0001f0 55 e5 dd 3d b5 2a 0f 3d 27 b1 db bc 0a 10 ba 3d
       0.10834757 0.034952838 -0.026817871 0.090850905
000200 df 80 ad 3d c4 dc 17 3d eb b4 51 3b 28 76 b1 3d
       0.08471846 0.037075773 0.0031998705 0.08665115
000210 2e be fc bd f9 3e 9b 3b 15 5a f3 bd 13 e2 31 3d
       -0.123409614 0.0047377315 -0.11882416 0.04342849
000220 f8 bb b5 bc 80 5c e3 bd 73 ef b0 bd e1 43 36 ba
       -0.022184357 -0.11101627 -0.08639421 -0.0006952864
000230 ba 00 2d 3c e0 56 b7 bd 07 82 7a bd 20 69 47 3d
       0.010559255 -0.08952117 -0.06115916 0.04868424
000240 81 38 dc bd 51 47 aa bb e8 dc 1e 3d 40 ea b7 bc
       -0.10752965 -0.00519649 0.03878489 -0.022450566
000250 6a 62 1b bd 13 f1 82 bd 5c c3 cc 3c 34 87 4e 3d
       -0.03793565 -0.063936375 0.024995498 0.05042191
000260 1b 0f 89 bd 91 25 6d bd 4e 74 14 be 3e 39 12 3e
       -0.06692334 -0.057897154 -0.14497492 0.14279649
000270 69 e6 75 bd 91 6f 2b bc 20 8e 8a 3b aa 3f 97 bd
       -0.06003419 -0.010463611 0.0042283684 -0.0738519
000280 14 1b ae bd da b6 81 bd c9 da 2f 3d fa b4 29 3d
       -0.085012585 -0.06333704 0.04293326 0.04143236
000290 af fd 6b 3d 22 47 a1 3c f4 d5 11 bd 30 ce ac bc
       0.05761498 0.01968724 -0.035604432 -0.021094412
0002a0 6e bf 83 bc 2a 03 09 be a2 d1 ab 3a 62 2a 35 3c
       -0.016082492 -0.13380113 0.001310874 0.011057468
0002b0 87 f6 c0 3d d0 b8 83 3d e9 ba 6d bc e0 37 5c 3c
       0.09422021 0.064317346 -0.014509895 0.013441056
0002c0 27 bf 8f 3d cc 45 82 3c c6 18 12 bd 73 c2 09 3c
       0.07018881 0.015902422 -0.035668157 0.008408177
0002d0 0a 61 be bd e0 9d a8 bd 8e 14 c2 bc 91 09 58 bd
       -0.092958525 -0.08233237 -0.023691442 -0.0527435
0002e0 f0 dc d8 bc 3b 0a fd bd 3a 46 ae 3c a2 26 33 be
       -0.026472539 -0.12355467 0.021273721 -0.17495206
0002f0 00 29 10 3d ff e7 e1 3a d8 d7 4b 3c 42 cf 2a 3c
       0.03519535 0.0017235278 0.012441598 0.010425391
000300 0b 42 66 3d 26 f0 7c 3d 43 04 f7 3c 7d 47 03 3c
       0.056215327 0.06175246 0.0301534 0.00801265
000310 29 57 c3 bd f4 9f 10 3c 41 e1 9d bd 3c b5 87 bd
       -0.09538109 0.008827198 -0.077089794 -0.066263646
000320 58 4a dd bd b0 17 b7 3d 01 90 05 3d 7d e6 a1 bc
       -0.108051956 0.08940065 0.032608036 -0.019763226
000330 5f d8 80 bb 41 b9 bd 3d 35 ae 95 3d d5 ec a3 bd
       -0.0039320434 0.0926385 0.07308618 -0.080041565
000340 65 64 e0 bc 03 5d 00 bd e9 f0 23 3d 7c b9 06 be
       -0.027391622 -0.031338703 0.04002467 -0.13156694
000350 08 b7 ce 3d 32 e1 da bc d4 9e ea bd 99 f5 c5 3d
       0.10093504 -0.02671871 -0.11456075 0.09665985
000360 0f a1 96 3d b6 ad 75 bd 14 51 af bd 3f ab 93 3d
       0.07354938 -0.059980117 -0.08560386 0.07210397
000370 b5 a7 c3 bd 7f 19 d3 3c 4b e1 f2 bd 59 38 19 3d
       -0.09553472 0.025768993 -0.118593775 0.037407253
000380 46 e0 bd 3d 94 85 84 3c 37 c7 87 3d 64 bd 88 3d
       0.092712924 0.016176976 0.06629794 0.066767484
000390 aa 75 16 3d 0e 3a d4 bc 9d 39 ba bc 4a cc f5 3c
       0.036733307 -0.025906589 -0.02273255 0.03000464
0003a0 09 c5 84 3d 19 29 f7 bd bb df 40 3d 0d 3a fe bb
       0.06482894 -0.12068386 0.047088366 -0.007758385
0003b0 67 fe d2 bd dc 8b e4 bb 9b 02 92 bd 00 82 f3 bc
       -0.1030243 -0.0069746803 -0.07129403 -0.029725075
0003c0 12 7f dd 3d 4d 73 7f 3d bd af 66 bd 6e d0 ca bd
       0.10815252 0.06236582 -0.05631994 -0.09903036
0003d0 0c a9 3f 3d f3 9d 42 bd f6 7e 83 3d 50 2d 92 3c
       0.046792075 -0.047513913 0.064207 0.017843872
0003e0 e0 33 9b bd 24 d3 29 3d 79 f5 b4 bd ba 06 c2 3d
       -0.07578254 0.041461125 -0.08835883 0.09473939
0003f0 c5 12 33 bd 04 6e d1 3d 7a 4c a7 3c 92 1e cd bc
       -0.043719072 0.10226062 0.020422209 -0.025038991

bias f4 [636]
000000 f9 13 76 3a 18 60 10 3d 01 9f ab bd a2 ce 1c 3d
       0.00093871314 0.035247892 -0.08379937 0.038282998
000010 27 31 ec bb da b4 6e bd 79 e7 bf 3d 9e d1 f2 bd
       -0.007208008 -0.058277942 0.09370322 -0.118563876
000020 f1 fe da bd 7a b6 ec 3c 43 4b 15 3d 8d c8 e8 3c
       -0.106931575 0.028895605 0.03644873 0.028415943
000030 8e a0 0a bd f3 f6 c8 3d f4 7a 87 3d a9 69 d5 bd
       -0.033844523 0.09812727 0.06615248 -0.10420544
000040 78 ab a9 bd 59 92 ec bc 83 56 d2 bc d1 48 bd bd
       -0.08284658 -0.028878378 -0.025676018 -0.09242404
000050 b9 34 ab 3d ed fc 30 bd 45 0d 06 be df 04 c5 3c
       0.083596654 -0.04320996 -0.13091 0.024050174
000060 f1 d9 ca 3c c6 57 90 bd 41 9f b4 bb d1 3d e7 3d
       0.024762126 -0.070479915 -0.0055121486 0.112910874
000070 99 04 bb bd 23 91 1d 3d b3 ba e1 bc 25 22 9d 3d
       -0.09131736 0.03846849 -0.027554845 0.07672528
000080 6a 13 8b 3b c9 4c 05 3d 68 9d e6 bd ec 69 3e bd
       0.0042442577 0.03254393 -0.112604916 -0.046487734
000090 86 41 78 bd 2c 5b f2 bd d5 23 14 bd 37 4c dd 3d
       -0.060609363 -0.11833796 -0.036166985 0.108055525
0000a0 fa fa ca 3d 1b 59 b2 3d b5 d3 84 3c 11 f8 2d ba
       0.09911151 0.08708402 0.016214231 -0.0006636391
0000b0 59 e0 0d bd 94 dc 5d bd 34 12 ef ba 47 a8 25 3d
       -0.034637783 -0.054165438 -0.0018239678 0.040443685
0000c0 13 f4 5b 3d e4 59 bd bd ff c0 d3 3d 26 58 8f 3b
       0.053699564 -0.09245661 0.103395455 0.004374522
0000d0 12 e8 6f 3d 47 7a 26 3d bb 4f 27 bc 5b 3d de 3c
       0.05857093 0.040643957 -0.01021188 0.027128866
0000e0 f1 15 a3 bd 86 9e b4 3c d5 1d a1 bd db 88 89 3c
       -0.07963169 0.022048246 -0.07867018 0.01678889
0000f0 6c 81 b4 bc 35 b3 21 bd 24 88 4a 3d 75 3e 88 3c
       -0.02203437 -0.039477546 0.04944624 0.016631344
000100 ee 22 6a 3b 8f 4a 27 bd 40 f6 57 3d fc 74 bc bd
       0.0035726386 -0.04084259 0.052725077 -0.092020005
000110 77 c1 29 3d 04 5a 4a bd 14 7f da 3d 3b 9c cc bd
       0.041444268 -0.04940225 0.106687695 -0.09990736
000120 28 2c 86 3a c7 e0 59 bb 47 15 e5 bc a1 ec ee 3d
       0.0010236548 -0.003324555 -0.027964247 0.11666227
000130 ed 1b c5 bd 82 a0 0d 3c 38 63 9c 3d 2b 6b 00 3e
       -0.09624467 0.008644225 0.07636112 0.12540881
000140 5c c4 b1 3d b7 78 01 be 55 ce b8 3d e2 4d 31 bd
       0.08680031 -0.12643705 0.0902373 -0.043287165
000150 b0 63 ad 3d f1 da 87 3c 66 98 2f bd 5d cb ca bc
       0.084662795 0.016583892 -0.042869948 -0.024755174
000160 75 f9 64 3d 36 27 ba bd 40 b7 29 3d 2b 8b 96 3d
       0.055901963 -0.0908951 0.041434526 0.07350763
000170 6b c7 39 bd 09 81 e2 bd 4e 27 06 be 6b 7d d1 bc
       -0.045356195 -0.11059768 -0.13100931 -0.0255725
000180 36 20 c2 3c 13 b9 89 3d 50 9e 84 3d 01 b6 b0 bd
       0.023697 0.06724753 0.06475508 -0.086284645
000190 38 43 f0 3d 1a 50 bf 3c b4 2c 0d be c9 e5 c7 bd
       0.11731571 0.023353625 -0.13786584 -0.09760625
0001a0 54 29 07 be d8 1b f9 3c c3 f3 52 bb 71 73 3d bd
       -0.13199359 0.030408785 -0.003218875 -0.04625267
0001b0 40 f3 14 be b6 fd 71 3d ce 22 c1 bd 5a b3 c0 bd
       -0.14545918 0.05907985 -0.094304666 -0.094092086
0001c0 1b f0 eb bd df ec c9 3d 97 6d 82 bd 04 fc 80 3d
       -0.11520406 0.09859633 -0.06368559 0.06298068
0001d0 44 ad bd 3c df ba 81 3d 0f 55 02 be fe a2 f2 3c
       0.023153909 0.06334471 -0.1272776 0.029618736
0001e0 07 56 5a 3c 59 74 99 bd ad 22 79 3c 0e d4 b6 bd
       0.013326175 -0.07492895 0.015206021 -0.08927165
0001f0 cd d1 d5 bd 81 a3 75 bd 6d 9c 8c 3d 60 dc b5 3d
       -0.10440407 -0.059970383 0.06865773 0.08879924
000200 33 f5 c2 3c 2d d9 ed 3d 5f a3 c7 3d 66 fa 15 be
       0.02379856 0.116136886 0.097479574 -0.146463
000210 9f 61 d9 bd 1a be 2b 3d a2 88 e0 bd 3b 3a 64 3d
       -0.10614323 0.04192934 -0.10963561 0.055719595
000220 d8 cb 8d 3c 60 9f a5 bd 44 7e 84 3d 6c 8e 2b bd
       0.017309114 -0.08087039 0.06469396 -0.04188387
000230 80 06 fd 3c 0d 3e 21 3d e4 97 f3 3c 6f 04 fc 3c
       0.030886889 0.039365817 0.029735513 0.030763833
000240 dc 79 07 be 4d 9c 07 3d 9c ae 28 bd 6e 3b 9c bd
       -0.1323008 0.033108044 -0.041182145 -0.07628523
000250 35 ec ad bc b1 7d ea bd 26 ee 9c 3d 0b 90 95 3b
       -0.021230796 -0.11449755 0.07662611 0.0045642904
000260 fb 90 fe bd 5f b6 e6 bc ed 20 92 bd 4a 4b ca bc
       -0.124299966 -0.028163133 -0.07135186 -0.024694104
000270 d9 b9 c4 bd 82 82 82 bd ee df 2b bc 5c fa fa bd
       -0.0960576 -0.06372549 -0.010490401 -0.122547835
000280 ad f9 08 bd f9 da 65 bc b4 51 47 3d 09 ee cd bc
       -0.033441234 -0.014029258 0.048661903 -0.025137918
000290 7a c8 ac 3d 48 82 7f bd 18 1c 96 3b 5d a2 8f 3d
       0.08436675 -0.062380105 0.0045809858 0.0701339
0002a0 6f d7 aa bd fd ab c6 3d d1 92 12 3d f9 e4 45 bd
       -0.08341872 0.09700773 0.035784546 -0.04831407
0002b0 8e b7 47 3c 46 11 a0 bc 67 09 dd bd e7 e3 81 bd
       0.012189759 -0.019539487 -0.10792809 -0.06342297
0002c0 1e fe 94 3c ba 49 94 3d 38 87 9e bd 1b da 01 3d
       0.018187579 0.07240625 -0.07740635 0.031702142
0002d0 d4 63 b3 3d b7 70 86 3d 8d f8 c1 3d 71 17 08 bd
       0.08759275 0.065644674 0.094712354 -0.03322548
0002e0 a5 09 c8 3d e2 84 a0 bc 49 10 15 3d dd 21 70 3c
       0.097674645 -0.019594613 0.036392484 0.014656511
0002f0 1f d6 b3 3d ea 66 e6 bd 30 7b 51 bd 57 fe f6 3b
       0.08781075 -0.11250098 -0.05114287 0.007537644
000300 4b 86 ef 3c fb 52 db 3d 40 20 be 3d 48 dd 5a 3b
       0.02923884 0.10709187 0.09283495 0.0033396054
000310 36 66 b2 bd ee 4d 5c bd 65 f2 e6 bd 51 cb 30 3d
       -0.087109014 -0.053785257 -0.11276702 0.043162648
000320 50 e0 ba b9 f7 10 bc 3d 32 10 1b 3c bc e9 f6 3c
       -0.0003564381 0.09182923 0.0094643105 0.03014075
000330 80 17 40 bd 0d 06 53 3c 38 36 90 bd 35 3d cb bc
       -0.04689741 0.012879861 -0.070415914 -0.02480946
000340 e4 f2 bc 3d 01 55 86 3d 50 2d f3 3d e6 8c 37 3d
       0.09226015 0.06559182 0.11873877 0.044812106
000350 31 d6 80 bc 60 fd e3 3d 2c d9 df 3c 33 1e 9a bd
       -0.015727134 0.11132312 0.027325235 -0.07525291
000360 34 4e 4f 3d fd 3d 25 3c d2 8b bc bc ea 59 70 3b
       0.05061169 0.01008558 -0.02301589 0.0036674687
000370 b6 62 76 3d c2 f1 65 3d 10 ff a7 bd 2f de 5a 3b
       0.06015273 0.05613876 -0.08202946 0.0033396592
000380 56 6b 78 bc 85 6b ef bd 61 1f 52 3d 72 3d c6 3d
       -0.01516231 -0.116904296 0.051299457 0.096796885
000390 14 7e e1 bd 42 de a2 bc fb c7 07 3d 3d 43 80 bd
       -0.110103756 -0.019881371 0.0331497 -0.06262825
0003a0 ec 62 8b bd f4 5d 35 3d 22 da c6 bd 46 a9 e1 bd
       -0.06805977 0.044279054 -0.09709574 -0.110186145
0003b0 b2 ba c5 bd fa 92 d1 3b 80 42 85 3d 3e 0a 55 3a
       -0.0965475 0.006395695 0.065068245 0.00081268314
0003c0 80 2d d1 bd a5 fe 9c 3d 9e 14 ce 3d 3a d7 1c bd
       -0.102137566 0.07665757 0.10062526 -0.038291194
0003d0 1b 17 22 bc e3 d9 6b bd b7 3d 89 bc ce 40 94 bd
       -0.009893204 -0.05758084 -0.01675306 -0.07238923
0003e0 5f 23 be 3d d6 9b c1 3d 6f 0e 34 3d fb e8 85 bd
       0.0928409 0.094535515 0.043959077 -0.06538578
0003f0 c9 66 7d bd 16 6a e5 3d 0a 06 9e bd 07 21 af bd
       -0.0618656 0.11201875 -0.077159956 -0.08551221
